model.tflite (tflite, 30952 bytes, 4 tensors)

sequential_1/lstm_1/Read_2/ReadVariableOp f2 [200]
00000000: 7d20 5a99 3c20 0e28 a788 5c95 a319 5c20
00000010: 7b0f 1116 7422 2d20 4c1e 8025 a295 1220
00000020: 0c19 be90 d00b e19d 4a99 599c 041a e621
00000030: cb22 4b1b 3b14 1621 3e1a 8f95 5c26 351a
00000040: fc8d 3b17 6398 4e21 a621 5818 1b24 e224
00000050: 11a0 9b94 4f1d f291 1125 9617 2b1c b320
00000060: de21 4721 f83b df3b f83b e53b fd3b eb3b
00000070: ff3b f83b 013c 013c f43b 013c fb3b 023c
00000080: f43b f03b 003c ff3b 003c f73b f93b f63b
00000090: fc3b f73b f03b f43b 013c e83b 003c ff3b
000000a0: dc3b e93b ff3b fe3b f53b f23b fd3b fb3b
000000b0: e23b ef3b e53b fb3b ea3b fd3b c53b fd3b
000000c0: f13b 013c ef3b eb3b 88a7 12a7 06a4 f3ab
000000d0: a321 1daa d4a7 f121 51a6 d193 9495 a222
000000e0: 13a6 1da1 cd1a 2724 f0a0 0222 7ba5 b5a1
000000f0: 43a4 278c 6a25 a0a6 79a0 ad1e 36a4 b626
00000100: 9ba8 0d9e 29ac ae2b 15a5 769c dc20 02a2
00000110: ba27 2222 1fa1 11a0 099c 3e8e 68a0 02a7
00000120: c328 7ba2 389d f1a4 fb29 0ea8 7f22 db98
00000130: 4121 0329 ed85 4e99 7b19 3c20 f206 3216
00000140: 1d22 5820 301e 0f26 3b95 6720 bc18 4991
00000150: 1d02 729e 6599 409c 6918 1921 7f22 6c1a
00000160: 3215 c21f 8d19 7095 f726 cf18 ca8e de17
00000170: 9f98 f720 7821 8f19 3824 dd24 0ea0 8394
00000180: 061c 5a92 ee26 5517 301b be20 1122 6c21
0.008766 -0.002613 0.00827 0.03168 -0.000142 -0.001308 0.002752 0.008514
0.0004566 0.001481 0.0126 0.008156 0.00615 0.02148 -0.001375 0.00795
0.002464 -0.000579 0.0002384 -0.00574 -0.002583 -0.004246 0.002937 0.01152
0.01327 0.003561 0.001033 0.00993 0.003048 -0.001357 0.02484 0.00303
-0.0003653 0.001765 -0.002142 0.01036 0.01103 0.002121 0.01604 0.01907
-0.00794 -0.001124 0.005184 -0.0007257 0.01979 0.001852 0.00407 0.00918
0.01146 0.01031 0.996 0.984 0.996 0.987 0.9985 0.9897
0.9995 0.996 1.001 1.001 0.994 1.001 0.9976 1.002
0.994 0.992 1.0 0.9995 1.0 0.9956 0.9966 0.995
0.998 0.9956 0.992 0.994 1.001 0.9883 1.0 0.9995
0.9824 0.989 0.9995 0.999 0.9946 0.993 0.9985 0.9976
0.9854 0.9917 0.987 0.9976 0.9893 0.9985 0.971 0.9985
0.9927 1.001 0.9917 0.9897 -0.02942 -0.02762 -0.01572 -0.0621
0.01101 -0.04776 -0.03058 0.011604 -0.02467 -0.000954 -0.001362 0.012955
-0.02373 -0.00999 0.00332 0.01622 -0.00964 0.011734 -0.02141 -0.01115
-0.01665 -0.0002534 0.02115 -0.02588 -0.008736 0.00652 -0.01645 0.02621
-0.03598 -0.00591 -0.065 0.06 -0.01985 -0.004356 0.00949 -0.011734
0.03018 0.01198 -0.01 -0.00794 -0.00394 -0.000381 -0.008606 -0.02737
0.0372 -0.01266 -0.005096 -0.0193 0.04672 -0.03168 0.01269 -0.00237
0.01026 0.03915 -9.04e-05 -0.00259 0.002676 0.00827 0.000106 0.001513
0.01194 0.008484 0.006042 0.02367 -0.001277 0.0086 0.002312 -0.000645
3.225e-05 -0.006294 -0.002634 -0.00415 0.002153 0.00996 0.01269 0.003136
0.001268 0.007576 0.00271 -0.0013275 0.0272 0.002348 -0.0004144 0.001921
-0.002256 0.0097 0.01068 0.002714 0.01648 0.019 -0.00792 -0.0011015
0.00393 -0.0007753 0.02707 0.00179 0.00351 0.00926 0.01185 0.01059

sequential_1/dense_1/MatMul f2 [1, 50]
00000000: be31 fe2c 0b34 9237 cd8f 21b4 bdaf cc32
00000010: df30 2eb1 2c34 1e32 0334 4336 6eaf e9b0
00000020: 6eb0 f326 62b1 5830 3ab0 98b0 e830 b1b4
00000030: bfb4 65b3 e333 1335 4aad 77ad 0a37 dc35
00000040: d029 4eb2 7ca7 df32 8634 80b0 9434 2b36
00000050: e633 a029 5c35 1931 bdb6 66b3 7db4 7fb1
00000060: a6b4 0334
0.1794 0.078 0.2527 0.4731 -0.0004761 -0.258 -0.1209 0.2124
0.1522 -0.1619 0.2607 0.1912 0.2507 0.3914 -0.1161 -0.1534
-0.1384 0.02715 -0.1682 0.1357 -0.1321 -0.1436 0.1533 -0.2932
-0.2966 -0.2311 0.2465 0.3171 -0.08264 -0.0854 0.44 0.3662
0.0454 -0.197 -0.02924 0.2147 0.2827 -0.1406 0.2861 0.3855
0.2468 0.04395 0.335 0.1593 -0.4211 -0.2312 -0.2805 -0.1718
-0.2905 0.2507

while/MatMul_1 f2 [200, 50]
00000000: 11ac 75a0 3422 762a 5f2d 62b0 1ea2 451b
00000010: 18a8 272c f029 d420 f7ae b8a0 5faa 06a9
00000020: 09b0 a925 d024 8e8b 3030 7bab 0f30 c0ae
00000030: 3faa fa2b 8cac 0da6 4b29 322f c2a2 e426
00000040: a4a8 0d28 b521 e1ab a2ab beb0 2624 57a3
00000050: c42d 29ac eaa1 1028 3d2d f030 801c 0d2e
00000060: b4a4 8129 452a a719 791e dea9 2bac 282b
00000070: d39f 5bac 992e 2e9d 7630 06a7 00b0 5119
00000080: 18aa 0627 9d27 a024 a624 ee2d a730 5414
00000090: 9dac 282d 19a7 09ac 7ea3 0dab 6093 3fac
000000a0: cea5 8b1d fdad 09ae f2a8 e124 5aad ae1e
000000b0: 662d 5b26 f420 24ae aa2f c4ae 932c 8fa0
000000c0: 72a4 33af 82a0 03a4 54a7 ada8 e028 d7ac
000000d0: fc1a b024 b4ad 222d 292a cc28 dc2f bfa5
000000e0: cb2c 1392 9cae 1eaa 9a1c 1225 a5a3 1e21
000000f0: 642e 11ac 83b1 9227 a8ae 14b0 feaa fd2e
00000100: b628 8dac 0228 e1a6 d026 98ae 2b2a ad2a
00000110: c3a3 2f26 352b 8e1e c0af 332a 39a9 3c9e
00000120: 61ad ea2c 9a2a c3ab f9a7 a4aa cba8 aaa6
00000130: 86a9 0ea9 1126 312b cd1f 8a1a ae1a 1430
00000140: 5027 0f2e 05ad 5e2c e7a4 46a7 33a9 0bab
00000150: 77a6 0530 301d a528 9c2b f6a1 5aae 6425
00000160: 77ac 7aac 4bac 3cad 01ae fb2b d29c 8da4
00000170: eea5 6a9f 282c ceaa 582a 3f21 e1a8 aa1d
00000180: 4ca3 f9ab bdaf 8f29 b725 b02d 5820 00ac
00000190: eca6 4faa 80ab b331 f426 2928 5f27 e4a6
000001a0: a8aa 762b b9a2 0329 2f2d d7a8 adac f8ac
000001b0: fa2a 41aa f1af b49d cca9 1ba5 a1a9 67ad
000001c0: e1aa e027 d6a8 5f26 0d9e 302d d427 d4af
000001d0: e72c 882f 182c 2db1 dc2b 0e2f fc22 6730
000001e0: 3f2d 0aae 2929 98ad d82c f128 5aac 9d20
000001f0: 17ae 591e 7ab0 5a2b 43ad b0a4 baa4 05a6
-0.06354 -0.008705 0.012115 0.05048 0.0839 -0.137 -0.01195 0.00355
-0.03198 0.0649 0.0464 0.00943 -0.1088 -0.00922 -0.04977 -0.03925
-0.1261 0.02211 0.0188 -0.0002306 0.1309 -0.05844 0.1268 -0.10547
-0.0488 0.06232 -0.07104 -0.02364 0.04135 0.1124 -0.0132 0.02692
-0.03625 0.03165 0.01115 -0.06155 -0.05963 -0.1482 0.0162 -0.014336
0.0901 -0.065 -0.01155 0.03174 0.08185 0.1543 0.004395 0.09454
-0.01837 0.043 0.04898 0.00276 0.00632 -0.04584 -0.0651 0.0559
-0.00764 -0.06805 0.1031 -0.00506 0.1394 -0.02744 -0.125 0.002596
-0.0476 0.02744 0.02974 0.01807 0.01816 0.09265 0.1454 0.001057
-0.0721 0.08057 -0.02773 -0.06305 -0.01463 -0.05508 -0.0009003 -0.06635
-0.02267 0.005413 -0.09357 -0.0943 -0.03864 0.01906 -0.0836 0.006523
0.08435 0.02483 0.009674 -0.09595 0.11975 -0.1057 0.0715 -0.0089
-0.01736 -0.1125 -0.008804 -0.01567 -0.02863 -0.03653 0.0381 -0.0756
0.00341 0.01831 -0.0891 0.0802 0.04813 0.03748 0.1228 -0.02245
0.0749 -0.0007415 -0.1033 -0.0478 0.004494 0.0198 -0.01493 0.009995
0.09985 -0.06354 -0.1722 0.02957 -0.104 -0.1274 -0.05463 0.1092
0.0368 -0.0711 0.0313 -0.02687 0.02661 -0.103 0.0482 0.05215
-0.01516 0.02415 0.0563 0.0064 -0.1211 0.04843 -0.0408 -0.00609
-0.08405 0.0768 0.05157 -0.06064 -0.03114 -0.05188 -0.03745 -0.02603
-0.04315 -0.0395 0.0237 0.05618 0.007618 0.003193 0.003262 0.1274
0.02856 0.09467 -0.0784 0.06824 -0.01915 -0.02841 -0.04062 -0.05502
-0.02525 0.1256 0.005066 0.0363 0.05945 -0.01164 -0.09924 0.02106
-0.06976 -0.06995 -0.0671 -0.0818 -0.0938 0.06235 -0.004707 -0.01778
-0.02316 -0.00724 0.06494 -0.05316 0.04956 0.01025 -0.03812 0.00553
-0.01425 -0.0623 -0.1209 0.04343 0.02232 0.08887 0.008484 -0.0625
-0.02704 -0.0493 -0.0586 0.1781 0.02716 0.0325 0.0288 -0.02692
-0.052 0.0583 -0.01313 0.03915 0.081 -0.0378 -0.07306 -0.07764
0.0545 -0.04886 -0.1241 -0.00557 -0.0453 -0.01994 -0.04398 -0.0844
-0.05374 0.03076 -0.03778 0.02489 -0.00591 0.08105 0.03058 -0.1223
0.0766 0.1177 0.06396 -0.1617 0.0614 0.1102 0.01364 0.1376
0.082 -0.09436 0.0403 -0.0874 0.0757 0.0386 -0.068 0.00901
-0.09515 0.0062 -0.1399 0.05743 -0.0822 -0.01831 -0.01846 -0.02351

while/MatMul f2 [200, 1]
00000000: 6131 1d2d 8d30 a431 9330 6825 73b0 c4af
00000010: 312d 34b0 802d c12d b5ad 1d26 a12e 81b0
00000020: 9b99 da2a 9f30 98ae e130 cc2d bcb0 f1af
00000030: 0e29 c0a8 9c2f 9821 61b1 f223 03ad 5b2e
00000040: 9e30 bdad 3c2f fd2a 2aa5 c323 f5b0 0829
00000050: 2e31 d699 deb0 0322 6231 54a9 7aa2 382a
00000060: 76ad 0630 a528 c530 b11d 7427 e42c 2518
00000070: 872b 0d1b 8f2f daad 9fac 472c 4dac 08ad
00000080: bfa0 572d 21b0 1b30 c42e 89af f1ae 1330
00000090: 0c30 4a2e 78a8 3122 53b1 e2ad 0f30 87ad
000000a0: 692e 6827 3ab1 5b2c cfaa 1daf b82e 4527
000000b0: 6431 e0ad aead bea2 36a5 d627 c527 ab30
000000c0: 10b0 ff2c 32b1 a130 fc32 d830 5232 0b36
000000d0: 77ac 7aaf afad ba32 4e25 9921 a033 5433
000000e0: ef2f cd30 f9aa f7b2 93ae 0ba6 faa8 f4a5
000000f0: 8796 0023 042e 90b2 b3b3 6fae ca28 0733
00000100: ddaf 9526 3c34 132d 4faa 39ac ccaf 8b33
00000110: f431 6dad 1934 0d34 1a29 2524 2d31 3327
00000120: ffb4 dfad 3db0 8fb2 57b3 b431 82ad 3a26
00000130: 0a21 81ab 7da8 3b30 0e2d 992c 7baf ea29
00000140: 8230 c52b 64ae b42c 73a7 d5aa 3a2c a89d
00000150: 0aaa b1af c130 53ac e230 732e 8530 082d
00000160: 372a 5532 b22f 29a0 b0b0 992f 16a8 92ae
00000170: 1691 5530 c02d 21b1 022a 1430 1aa8 99a8
00000180: bb2c 87b1 c429 1425 a42d c32e e7a9 3d2d
0.1681 0.0799 0.1422 0.1763 0.143 0.02112 -0.139 -0.12134
0.0811 -0.1313 0.08594 0.0899 -0.0892 0.02388 0.1036 -0.1407
-0.002737 0.05353 0.1444 -0.103 0.1525 0.0906 -0.148 -0.1241
0.0395 -0.0371 0.1189 0.010925 -0.1681 0.01552 -0.0783 0.0993
0.1443 -0.08966 0.11304 0.0546 -0.02017 0.01516 -0.1549 0.0393
0.1619 -0.00285 -0.1521 0.01174 0.1682 -0.04163 -0.01265 0.04858
-0.0853 0.1257 0.0363 0.149 0.005558 0.02911 0.0764 0.002024
0.0588 0.003443 0.1181 -0.09143 -0.0722 0.06683 -0.0672 -0.0786
-0.00927 0.08344 -0.129 0.1283 0.1057 -0.11774 -0.10846 0.1273
0.1265 0.09827 -0.0349 0.01209 -0.1664 -0.0919 0.1268 -0.08636
0.10016 0.02893 -0.1633 0.06805 -0.0532 -0.11115 0.105 0.0284
0.1685 -0.0918 -0.08875 -0.01317 -0.02036 0.03061 0.03035 0.1459
-0.127 0.07806 -0.1624 0.1447 0.2183 0.1514 0.1975 0.3777
-0.06976 -0.1168 -0.0888 0.2102 0.02072 0.01093 0.2383 0.229
0.12396 0.15 -0.05447 -0.2177 -0.1027 -0.0236 -0.03888 -0.02325
-0.001594 0.01367 0.094 -0.2051 -0.2406 -0.1005 0.0374 0.2196
-0.12286 0.02571 0.2646 0.0793 -0.0493 -0.066 -0.1218 0.2357
0.186 -0.0848 0.256 0.2532 0.03986 0.01619 0.1617 0.02812
-0.3123 -0.09174 -0.1324 -0.205 -0.2294 0.1782 -0.08606 0.02432
0.00984 -0.05862 -0.03506 0.1322 0.079 0.07184 -0.1169 0.0462
0.1409 0.0607 -0.09985 0.0735 -0.0291 -0.05338 0.06604 -0.005524
-0.04718 -0.1202 0.1486 -0.06757 0.1526 0.10077 0.1412 0.0786
0.04855 0.1979 0.12024 -0.008125 -0.1465 0.1187 -0.03192 -0.10266
-0.000621 0.1354 0.08984 -0.1603 0.04694 0.1274 -0.03204 -0.03592
0.0739 -0.1727 0.04504 0.01984 0.08813 0.10565 -0.0461 0.08185
